…
Filter out questions without negative training samples.
Load ../data/sq_relations/train_data.txt
average instances per question 7.779284752119596
Train data length:75722
Load ../data/sq_relations/test_data.txt
average instances per question 7.806796698482962
Test data length:21687
Load ../data/sq_relations/valid_data.txt
average instances per question 7.68534442903375
Validation data length:10815
Load embedding from ../embedding/sq_wd_emb_300d.txt
Load embedding from ../embedding/sq_kg_emb_300d.txt
Tokened train data length:75722
Tokened test data length:21687
Tokened val data length:10815
Build model
PMTLM(
  (word_embedding): Embedding(64392, 300)
  (rel_embedding): Embedding(4046, 300)
  (mlhatt): MultiHeadedAttention(
    (linears): ModuleList(
      (0): Linear(in_features=300, out_features=300, bias=True)
      (1): Linear(in_features=300, out_features=300, bias=True)
      (2): Linear(in_features=300, out_features=300, bias=True)
      (3): Linear(in_features=300, out_features=300, bias=True)
    )
    (dropout): Dropout(p=0.35, inplace=False)
  )
  (sdpatt): ScaledDotProductAttention()
  (rnn_dropout): Dropout(p=0.35, inplace=False)
  (first_gru): BayesianGRU(
    (weight_ih_sampler): TrainableRandomDistribution()
    (weight_hh_sampler): TrainableRandomDistribution()
    (bias_sampler): TrainableRandomDistribution()
    (weight_ih_prior_dist): PriorWeightDistribution()
…
        (weight_prior_dist): PriorWeightDistribution()
        (bias_prior_dist): PriorWeightDistribution()
      )
      (1): ReLU()
      (2): MaxPool1d(kernel_size=13, stride=13, padding=0, dilation=1, ceil_mode=False)
    )
    (3): Sequential(
      (0): BayesianConv1d(
        (weight_sampler): TrainableRandomDistribution()
        (bias_sampler): TrainableRandomDistribution()
        (weight_prior_dist): PriorWeightDistribution()
        (bias_prior_dist): PriorWeightDistribution()
      )
      (1): ReLU()
      (2): MaxPool1d(kernel_size=12, stride=12, padding=0, dilation=1, ceil_mode=False)
    )
  )
  (proj_rel): Sequential(
    (0): Linear(in_features=1200, out_features=300, bias=True)
    (1): ReLU()
  )
  (fc): Sequential(
    (0): Dropout(p=0.35, inplace=False)
    (1): Linear(in_features=1200, out_features=600, bias=True)
    (2): ReLU(inplace=True)
    (3): Dropout(p=0.35, inplace=False)
    (4): Linear(in_features=600, out_features=300, bias=True)
    (5): ReLU()
    (6): Dropout(p=0.35, inplace=False)
    (7): Linear(in_features=300, out_features=1, bias=True)
  )
  (hidden2tag): Sequential(
    (0): Linear(in_features=300, out_features=300, bias=True)
    (1): ReLU()
    (2): Dropout(p=0.35, inplace=False)
    (3): Linear(in_features=300, out_features=4, bias=True)
  )
)
nb_batch 21687 batch_size 1
nb_batch 4011 batch_size 128
nb_batch 10815 batch_size 1
Load best model ./save_models/sq_model.pt
Processing: 0it [00:00, ?it/s]Processing: 1it [00:00,  7.15it/s]Processing: 2it [00:00,  7.13it/s]Processing: 3it [00:00,  7.06it/s]Processing: 4it [00:00,  7.21it/s]Processing: 6it [00:00,  8.48it/s]Processing: 7it 
…
